…
Data Source: supervised_learning/dataloader/merged_windowed_datasetV2.csv
Feature Info: supervised_learning/dataloader/feature_infoV2.json
Output Directory: supervised_learning/output/new_STAF
Checkpoint Directory: supervised_learning/output/new_STAF/checkpoints
Plot Save Path: supervised_learning/output/new_STAF/trainingresults_plot.png
Epochs: 50000, Batch Size: 8, Learning Rate: 0.001
LR Scheduler: Step Size = 100, Gamma = 0.75
============================================================
✅ Dataset split: 246 train, 31 val, 31 test
✅ Scalers fitted and saved.

✅ Model initialized with 1249298 trainable parameters.

TemporalAttentiveFusionNet(
  (seriesEmbedding): Embedding(8000, 64)
  (attn): MultiheadAttention(
    (out_proj): NonDynamicallyQuantizableLinear(in_features=64, out_features=64, bias=True)
  )
  (attn_norm): LayerNorm((64,), eps=1e-05, elementwise_affine=True)
  (attn_fc): Linear(in_features=64, out_features=1, bias=True)
  (dropout): Dropout(p=0.5, inplace=False)
  (fc1): Linear(in_features=433, out_features=1028, bias=True)
  (bn1): BatchNorm1d(1028, eps=1e-05, momentum=0.1, affine=True, track_running_stats=True)
  (fc2): Linear(in_features=1028, out_features=256, bias=True)
  (bn2): BatchNorm1d(256, eps=1e-05, momentum=0.1, affine=True, track_running_stats=True)
  (fc3): Linear(in_features=256, out_features=32, bias=True)
  (bn3): BatchNorm1d(32, eps=1e-05, momentum=0.1, affine=True, track_running_stats=True)
  (fc4): Linear(in_features=32, out_features=1, bias=True)
  (relu): ReLU()
)
StepLR Scheduler: step_size = 100 , gamma = 0.75
============================================================
Starting training...

Epoch 1/50000 | Train RMSE: 8.38273 kWh | Val RMSE: 5.77824 kWh | Train R²: -1.006 | Val R²: -0.339 | Patience: 0/5000
Epoch 2/50000 | Train RMSE: 8.06437 kWh | Val RMSE: 5.82646 kWh | Train R²: -0.859 | Val R²: -0.359 | Patience: 0/5000
…
