…
Data Source: supervised_learning/dataloader/merged_windowed_datasetV2.csv
Feature Info: supervised_learning/dataloader/feature_infoV2.json
Output Directory: supervised_learning/output/new_STAF
Checkpoint Directory: supervised_learning/output/new_STAF/checkpoints
Plot Save Path: supervised_learning/output/new_STAF/trainingresults_plot.png
Epochs: 50000, Batch Size: 16, Learning Rate: 0.0001
LR Scheduler: Step Size = 1000, Gamma = 0.5
============================================================
✅ Dataset split: 215 train, 46 val, 47 test

✅ Model initialized with 822210 trainable parameters.

TemporalAttentiveFusionNet(
  (seriesEmbedding): Embedding(8000, 64)
  (attn): MultiheadAttention(
    (out_proj): NonDynamicallyQuantizableLinear(in_features=64, out_features=64, bias=True)
  )
  (attn_norm): LayerNorm((64,), eps=1e-05, elementwise_affine=True)
  (attn_fc): Linear(in_features=64, out_features=1, bias=True)
  (dropout): Dropout(p=0.2, inplace=False)
  (fc1): Linear(in_features=433, out_features=512, bias=True)
  (bn1): BatchNorm1d(512, eps=1e-05, momentum=0.1, affine=True, track_running_stats=True)
  (fc2): Linear(in_features=512, out_features=128, bias=True)
  (bn2): BatchNorm1d(128, eps=1e-05, momentum=0.1, affine=True, track_running_stats=True)
  (fc3): Linear(in_features=128, out_features=32, bias=True)
  (bn3): BatchNorm1d(32, eps=1e-05, momentum=0.1, affine=True, track_running_stats=True)
  (fc4): Linear(in_features=32, out_features=1, bias=True)
  (relu): ReLU()
)
StepLR Scheduler: step_size = 1000 , gamma = 0.5
============================================================
Starting training...

Epoch 1/50000 | Train RMSE: 8.76723 kWh | Val RMSE: 6.73856 kWh | Train R²: -1.214 | Val R²: -0.699 | Patience: 0/5000
Epoch 2/50000 | Train RMSE: 8.61884 kWh | Val RMSE: 7.11626 kWh | Train R²: -1.131 | Val R²: -0.895 | Patience: 0/5000
…
